Reinforcement Learning/BasicFlappyBirdAI/model/model.pth (torch, 13015 bytes, 4 tensors)

linear1.weight f4 [256, 8]
000000 fc ce e8 bd c5 0b 02 bf 6e 76 a2 be 92 aa 78 be
       -0.11367604 -0.5079921 -0.3173098 -0.24283817
000010 da 42 76 3e 32 17 fa 3b 4b 83 47 be 58 09 40 bd
       0.2404894 0.0076321596 -0.19483678 -0.04688391
000020 90 a2 ab be e8 9f 48 be 5f b6 92 be f5 fe a0 be
       -0.33522463 -0.1959225 -0.28654763 -0.31444517
000030 00 fe ba be 67 1b a8 be c6 9f a8 be cb c4 7b 3f
       -0.36521912 -0.32833406 -0.32934397 0.9834716
000040 61 ea a7 be 89 41 88 3e 82 5f 01 bf ed 2a 37 be
       -0.32796004 0.266125 -0.5053636 -0.17887469
000050 61 47 84 3f f7 a9 e9 be f4 e2 18 bf 13 84 e8 3e
       1.0334283 -0.45637485 -0.59721303 0.45413265
000060 3a 59 c5 be 0a 52 e4 bd 8d 70 fa be ec dd e1 bd
       -0.38544637 -0.1114846 -0.48913994 -0.11028656
000070 e4 58 01 3e 0b 98 af be 1a fd 93 be 44 05 3e 3f
       0.12631565 -0.34295687 -0.2890404 0.74226785
000080 09 bd 6f 3c 4a c4 ab bf f7 a0 05 bf 54 cd 5d bd
       0.014632472 -1.3419278 -0.5219874 -0.054150894
000090 24 fa 55 bd d3 e0 74 bd 70 b6 2a be 15 41 de be
       -0.052240506 -0.05978472 -0.16671157 -0.4340903
0000a0 b0 5a 54 bf e1 39 d7 be dc 62 c2 be 59 90 8d bd
       -0.8295088 -0.42036346 -0.3796605 -0.06912298
0000b0 2b ff 49 be 90 fe 11 bf 0e 41 a0 be c7 c5 03 3f
       -0.19726245 -0.57029057 -0.31299633 0.5147366
0000c0 14 4f 94 3d 48 7b 8e 3d 11 72 0d be b0 b7 75 be
       0.072416455 0.06957108 -0.13813044 -0.23995852
0000d0 22 cc 30 bc c3 f8 ce be cd 2f be be fe 4d 14 be
       -0.010790857 -0.40424165 -0.37145844 -0.14482877
0000e0 d7 46 4a bf 11 ab 87 bc cb 5e 5c be 2f 34 2d bf
       -0.79014343 -0.016561063 -0.21520536 -0.6765775
0000f0 96 aa 1e 3f 78 89 c7 bd dc d2 05 bf 4a f5 4f 3e
       0.61979043 -0.09743017 -0.5227487 0.20308414
000100 dd 5f 1d be 00 44 13 ba 46 ea 01 bf d7 9a 16 bc
       -0.153686 -0.0005617738 -0.507481 -0.00919219
000110 cb 98 d6 3e 1b e7 da be a0 31 15 bf 5d 65 fe 3e
       0.41913447 -0.42754444 -0.58278847 0.4968671
000120 a0 df 0e bc 70 d5 3e be 58 0d 32 be e5 0a 3c bf
       -0.008720309 -0.18636107 -0.17387903 -0.73454124
000130 ce 95 f9 be 18 b5 88 be 49 f5 58 be 50 f3 75 be
       -0.48747104 -0.26700664 -0.21187319 -0.24018598
000140 50 4a 86 bc 5f bf 31 be 24 68 f0 be 98 2a 71 be
       -0.016392857 -0.17358159 -0.46954453 -0.23551404
000150 b6 82 c8 3d 5a ee 09 bf 5e 97 a0 be a1 99 0b bf
       0.09790556 -0.5387932 -0.31365484 -0.54531294
000160 10 93 31 be 7c 8e 5c 3e 4d d4 05 3e 35 83 6a be
       -0.17341256 0.21538728 0.13069268 -0.22901614
000170 03 f3 d1 3f c8 49 4e be 25 ed 45 3e 8c 7c 99 3f
       1.6402286 -0.20145333 0.19328745 1.1991134
000180 7e 08 88 be b0 66 20 bf d0 fc 94 be d6 97 cd be
       -0.2656898 -0.6265669 -0.2909913 -0.40154904
000190 70 1d 2d be b5 af f4 be 1d 6a 8e be fe b7 11 3f
       -0.16905761 -0.47790304 -0.27815333 0.56921375
0001a0 7e 91 76 3d a5 bc 82 be 6e d8 b9 be 53 e1 8c bd
       0.060197346 -0.2553455 -0.36297935 -0.06878915
0001b0 ba 5f db bd d7 97 06 bf 94 19 1e bf ee 10 26 3f
       -0.10711618 -0.5257544 -0.6175778 0.6486958
0001c0 79 36 d3 be 56 e9 a8 be be ab a0 bc 4c 09 d4 bc
       -0.41252497 -0.3299052 -0.019613143 -0.02588334
0001d0 fe eb cf ba 3b 1a 40 be 6c 9f b8 be 7f ab 19 3f
       -0.0015863178 -0.18760006 -0.3605913 0.6002731
0001e0 42 63 3e 3e 80 c3 ec bb 6c 76 45 be 00 f5 e2 bc
       0.18592551 -0.007225454 -0.19283456 -0.027704716
0001f0 42 de 31 3e 84 af c5 bd f2 83 50 3e 73 72 a2 3e
       0.17369941 -0.096526176 0.20362833 0.31727943
000200 e4 72 b7 be 70 ed d1 be 15 e0 da bd bb a3 fb bd
       -0.35829842 -0.41001463 -0.106872715 -0.122870885
000210 9f ca 79 3e 30 be 6e be 41 88 bd be 3c 2a 8c be
       0.243937 -0.23314738 -0.37018016 -0.27375972
000220 f4 31 f7 3d e0 d9 b5 3c 3c f9 8b bd 10 e0 9f bc
       0.12070075 0.022198617 -0.06834647 -0.019516021
000230 64 d9 e8 bd 94 d5 b0 be de c1 44 3e c5 d0 a0 3e
       -0.11369589 -0.34537947 0.1921458 0.3140928
000240 7e b8 9f be ec 00 ae be 8e ff 2c be 0a 2d 5a be
       -0.31195444 -0.33985078 -0.16894361 -0.21306244
000250 c2 dd 73 be f6 56 03 be 94 42 b0 bd b9 42 74 be
       -0.23815063 -0.12826142 -0.08606449 -0.23853578
000260 76 30 c4 3c b9 ca 9f be 86 b0 11 bb e1 37 17 be
       0.02394889 -0.31209353 -0.002223046 -0.1476741
000270 e6 c0 15 be 5d d3 90 bd 11 3c ec be 14 86 0a 3e
       -0.14624366 -0.07071564 -0.46139577 0.13527709
000280 dc 9f 01 bf 4c 05 90 bd 0d b9 a3 be a4 ed 8e ba
       -0.5063455 -0.0703226 -0.3197712 -0.0010904563
000290 2f 5b dd 3c 83 19 bf bd 46 57 14 bf 47 92 3c bf
       0.027021019 -0.09331038 -0.5794567 -0.736607
0002a0 1e 9b cb bc c8 d1 88 bd 8b 37 e8 be 98 b7 07 be
       -0.02485424 -0.066806376 -0.45354876 -0.13253629
0002b0 80 c9 65 bd 65 c4 de be bc 30 fc bd de e0 42 be
       -0.05610037 -0.43509212 -0.12313983 -0.19031093
0002c0 3f 52 76 be e7 88 d0 3e 1c ba 30 be 7b b0 84 be
       -0.24054812 0.40729448 -0.17258495 -0.25915894
0002d0 aa fc a3 3d 35 59 ff 3c 9c 83 ca bd b3 04 32 be
       0.08007176 0.031170467 -0.09888384 -0.17384605
0002e0 b9 ad 72 be 21 48 bd bf 86 33 5e 3d 49 1d 09 bf
       -0.23699082 -1.4787637 0.054248355 -0.5356031
0002f0 24 8a 0b 3e ab 13 41 be e7 d3 2f bf b5 90 8f bf
       0.13626915 -0.18855159 -0.6868271 -1.1216036
000300 3f e3 c2 be bf 2d 8a be c3 97 84 be fb ed cb bd
       -0.38064 -0.26988026 -0.25897035 -0.099575005
000310 53 32 7c be 47 44 ef 3c 17 ec bb be 18 22 d3 bd
       -0.24628572 0.029207362 -0.3670356 -0.10309237
000320 e4 e1 1c 3e 1b b2 32 be 30 fc 1c be 9a f1 ce be
       0.15320545 -0.17450754 -0.15330577 -0.40418702
000330 dd fd 8d 3e 52 a3 15 bf 41 32 0b bf 25 eb 89 be
       0.27732745 -0.5845233 -0.54373556 -0.26937214
000340 37 a0 ba bd c5 44 0a bf fd 43 d1 be 4d 32 7c be
       -0.0911259 -0.54011184 -0.40872183 -0.24628563
000350 6c bb 45 bc a3 00 26 3d cc e0 04 be b4 c0 e5 3d
       -0.012068611 0.04052795 -0.12976378 0.11218396
000360 f3 77 17 bf 10 2d bf 3f 05 c1 8e 3e 18 0e 29 bf
       -0.59167403 1.4935627 0.27881637 -0.6603713
000370 d9 42 c9 3f 22 1e 92 be 43 7a 51 bc e4 31 2e 3f
       1.5723525 -0.28538615 -0.012785497 0.6804488
000380 7c f8 10 bd 5d 56 c7 be 58 1c 24 be 5f eb 05 be
       -0.035393223 -0.38933077 -0.16026437 -0.13078068
000390 5a 45 87 3e 51 32 fe 3c 0b fc 28 3e 0a 88 99 be
       0.264201 0.031029852 0.16502397 -0.29986602
0003a0 00 53 26 3b 23 75 0f be 9a 16 f0 bd 0a 48 73 be
       0.0025379062 -0.14009528 -0.11723061 -0.2375795
0003b0 08 ed cf bd ff 2a 21 be f2 a0 fe bd 96 52 8c be
       -0.10152632 -0.15739058 -0.12433042 -0.27406758
0003c0 4a 6f 5d 3e 05 69 b4 3e 56 1e 05 bd 94 8c d6 3a
       0.21624485 0.35236374 -0.032499634 0.00163688
0003d0 f3 6f e3 bd 03 40 75 be 41 cb a1 be 15 a1 db be
       -0.11105337 -0.239502 -0.31600383 -0.42896333
0003e0 13 fa 9e be 8d 69 12 bf 5b a6 93 be 7a 53 d7 be
       -0.31050166 -0.5719231 -0.28837857 -0.42055875
0003f0 2d 30 81 3e 81 44 0c bf 67 4b ff be 79 0d 71 3f
       0.25232068 -0.5479203 -0.49862215 0.9416118

linear1.bias f4 [256]
000000 7a 3e 3d be 4d 19 37 bf 8d cc c0 be 6c 6b a9 be
       -0.18480864 -0.7152298 -0.3765606 -0.3308977
000010 41 a2 fb be cc d0 de be ca 77 e8 bd b8 bd 26 be
       -0.49147227 -0.43518674 -0.11350973 -0.1628331
000020 c0 2e 19 bf 80 fd d2 be 68 4a fc be 0f 58 a3 3e
       -0.5983696 -0.4120903 -0.49275517 0.3190312
000030 e9 60 36 bf 0d 59 e2 be 70 94 03 bf 34 70 98 3d
       -0.71241623 -0.44208565 -0.5139837 0.07443276
000040 1d 7f 46 be 53 63 05 be 48 02 94 be 97 e2 82 be
       -0.19384427 -0.1302617 -0.2890799 -0.255635
000050 c6 06 ee bd 70 59 9f be f4 e0 6a 3e 7c 4d 9d be
       -0.11622386 -0.31122923 0.22937375 -0.30723178
000060 9e 84 58 3e de 7f 1b be ac 7a e5 be 11 f1 fb be
       0.2114434 -0.15185496 -0.44820154 -0.49207357
000070 9c af 97 be b8 e0 f5 bd a9 e0 15 3e 4e 8c 0a bf
       -0.29626167 -0.12005752 0.14636482 -0.5412034
000080 3e f3 d3 be a0 00 cf be 8d c9 cb bd 64 ed 02 bf
       -0.41396517 -0.40430164 -0.09950552 -0.5114348
000090 1e 6e 68 be 80 ab 89 3d 9e ad cd be 34 c6 20 bf
       -0.22698256 0.06722164 -0.40171522 -0.62802434
0000a0 94 fa 67 bf 68 92 86 3e 6b 79 ab 3e 3f 3d bb be
       -0.90616727 0.26283574 0.33491072 -0.36570165
0000b0 a8 51 d8 be 25 85 d1 be bf 81 c0 be dd a2 9f be
       -0.422498 -0.40921894 -0.37598988 -0.31178942
0000c0 7a 3f 90 be 4d 5e 5b be 8b 5c 39 bf 69 cb 10 bf
       -0.2817343 -0.21422692 -0.72406834 -0.5656038
0000d0 2e c0 e5 be 18 06 0b bf c2 8a 60 3e 4a 6e 59 3e
       -0.44873184 -0.54306173 0.21927932 0.21233478
0000e0 24 8f 20 bf 4e 39 b3 be 43 5d 13 3e 61 9b fa be
       -0.62718415 -0.35004658 0.14391045 -0.4894667
0000f0 0a 26 16 bf ba 52 41 bf ba 47 5f 3e 65 c5 c1 be
       -0.58651793 -0.75516856 0.21804705 -0.37845913
000100 f5 c1 ef be 01 45 9b be ab 85 e8 3c c0 38 73 be
       -0.46827665 -0.30326083 0.02838405 -0.23752117
000110 af a4 1c bf 10 08 db 3d a1 94 04 bf ac 9a 2e be
       -0.6118879 0.10694897 -0.5178929 -0.1705119
000120 51 ba b3 bd a0 1f 58 be 50 71 37 be e7 d9 83 be
       -0.087757714 -0.21105814 -0.17914319 -0.25752184
000130 7e fd a7 3b 3c 4c 20 3d 84 26 17 bc bb 80 ba be
       0.005126654 0.039135203 -0.009225491 -0.3642634
000140 eb 8a 67 bb d5 be 1e be 58 2d ac bd ea b9 4b 3d
       -0.0035330604 -0.15502484 -0.08407086 0.04973785
000150 ca 68 0c 3e 1c a5 19 be a6 46 23 bf 24 0e 96 be
       0.13711849 -0.1500439 -0.63779676 -0.29307663
000160 f4 8c b7 be 35 61 6b be 35 89 47 bf d1 dc 45 be
       -0.35849726 -0.229863 -0.77943736 -0.19322516
000170 31 61 b2 3d 06 80 e4 bd 60 c3 0b bf 0c a5 ad be
       0.08709944 -0.11157231 -0.54594994 -0.33914983
000180 69 c2 c7 bc 6e b3 74 3d 0b 88 3e bf 95 22 33 bf
       -0.024384694 0.05974143 -0.74426335 -0.69974643
000190 c0 1f 43 bd 83 58 03 3e 5e d4 37 bf 51 be f7 be
       -0.0476377 0.12826733 -0.7180842 -0.48387387
0001a0 6b a8 1c bf 42 10 27 be 95 21 91 be b6 24 22 bf
       -0.61194485 -0.16314796 -0.28345934 -0.63337266
0001b0 2c 66 80 be 66 37 1a 3e c2 d2 fc be 97 b8 59 be
       -0.2507795 0.15060195 -0.49379545 -0.21261822
0001c0 7f 28 94 be 7a 8a e0 bc f8 f3 06 be 07 df 1a bf
       -0.28937146 -0.02740978 -0.13179004 -0.6049656
0001d0 df f8 0f be d3 60 d9 be 31 41 a3 be 46 a5 12 bd
       -0.1405978 -0.42456684 -0.31885675 -0.03580215
0001e0 23 70 d9 bd 67 ad 93 be 13 2e 30 3e 7c fe 45 bc
       -0.106170915 -0.28843233 0.17205076 -0.0120846
0001f0 0e 2e 0a be 20 a5 c5 be 79 1d 07 bf b7 7e a5 be
       -0.13494131 -0.38602543 -0.52779347 -0.32323238
000200 73 b6 e8 bd bd b4 e7 bc 37 98 39 bf f7 12 dc be
       -0.113629244 -0.028284425 -0.72497886 -0.4298322
000210 41 52 f9 3d bc 02 6b be eb da dd 3e a2 cb 21 bf
       0.12173892 -0.22950262 0.43331084 -0.63201344
000220 03 07 94 be 6c e0 e8 3d 92 9f 1e bf 45 e6 d1 be
       -0.289116 0.1137093 -0.61962235 -0.40995994
000230 72 15 73 3e 50 f5 28 be c8 0e 02 bf c0 6d f1 3b
       0.2373865 -0.1649983 -0.50803804 0.0073678195
000240 4c 9f bf be 80 a3 d5 be 75 7e c8 be cc c9 b1 be
       -0.3742622 -0.41726303 -0.3915898 -0.3472427
000250 c2 f7 9a be 25 c8 a6 be 59 16 42 bf 4a fe a3 be
       -0.3026715 -0.32574573 -0.7581535 -0.32029945
000260 e2 f7 c5 be df e0 8b be 4d 31 89 3d 81 2c 0b bf
       -0.38665682 -0.2732 0.066988565 -0.5436478
000270 8a 36 73 be 38 60 96 3d 99 63 55 be d0 72 13 3d
       -0.23751274 0.07342571 -0.20838775 0.035998166
000280 da 4f d3 be 7d b2 ca be d6 69 02 bf 60 98 ca be
       -0.4127186 -0.395893 -0.5094274 -0.39569378
000290 fe b9 c1 bc a6 2f bf be d7 4c f8 be ea af 9d be
       -0.023648258 -0.3734104 -0.48496124 -0.30798274
0002a0 a9 ef 30 be 3c 24 0e 3e 10 a3 03 bd a3 b2 7f bf
       -0.17278923 0.1388101 -0.03213793 -0.99881953
0002b0 c1 8e 7b be f8 15 06 bf 1d 4c e0 3d 58 a6 08 bf
       -0.24566175 -0.5237727 0.109520175 -0.5337882
0002c0 22 cb c2 be 3c 79 6c 3d 07 64 23 be f1 66 f0 3c
       -0.38045603 0.057732806 -0.15956126 0.029345961
0002d0 01 c9 be be 81 c1 08 bf b0 9b 1c 3f 3b c5 a7 bd
       -0.3726273 -0.53420264 0.6117506 -0.081919156
0002e0 bc ec 47 bd 6f 32 34 bf 66 1f e7 be 57 54 13 be
       -0.048809752 -0.70389456 -0.45141143 -0.14387642
0002f0 6c e8 d0 3d 00 ec 45 bf 0d a1 a9 be 9b 8e 04 be
       0.10200581 -0.7731323 -0.33130684 -0.12945025
000300 3f f2 26 be dc ae f4 3d 55 f8 38 be 3d 39 b2 be
       -0.16303347 0.11947414 -0.18063481 -0.34809294
000310 00 7d 3b bf 72 cf c9 be eb 7b 1c 3d 56 ce d2 3d
       -0.7323761 -0.3941608 0.038204115 0.10293262
000320 81 d4 f2 3e 19 61 2a bf 8e d8 01 bf de 14 30 3e
       0.47427753 -0.6655441 -0.5072106 0.1719546
000330 90 cd 9c bd 3e 2b 68 3e 9c bc ff bb 2c 6d 06 bf
       -0.076563954 0.22672746 -0.0078044664 -0.52510333
000340 87 db b7 bd 7b b7 f9 be 6c 51 9b 3e e6 cb f6 bd
       -0.089774184 -0.48772797 0.30335557 -0.12050609
000350 80 ea b0 bd 19 55 8c 3e 51 9f 23 3e 68 d2 82 be
       -0.08638477 0.27408674 0.15978743 -0.25551152
000360 c3 ca 1e bf 07 39 28 be ca 4e 10 bd e8 15 84 3d
       -0.6202814 -0.16428004 -0.03523139 0.06449491
000370 92 c9 a8 bd 7b e2 ac be 06 9c 25 be 63 14 c5 3d
       -0.082415715 -0.3376654 -0.161728 0.09623029
000380 48 3c b3 be 08 44 94 be f4 db 73 be fd 28 17 3e
       -0.35006928 -0.28958154 -0.23814374 0.1476173
000390 bf c5 4e bd e7 91 4f be 23 e0 14 bf 66 6a b5 3b
       -0.050481554 -0.20270501 -0.58154505 0.0055363653
0003a0 d3 f3 24 bf 8c 74 eb 3d f0 91 20 3e d5 e0 d2 3d
       -0.64434546 0.11496839 0.1568067 0.102967896
0003b0 d5 c1 87 3e 5c ea ac be c2 79 d7 be 8c db 17 bf
       0.2651507 -0.33772552 -0.4208508 -0.59319377
0003c0 fd f2 0f bf 77 4b 91 be 94 e3 0e bf 4f d5 2a be
       -0.56230146 -0.28377888 -0.55816007 -0.16682933
0003d0 aa fb db bd 28 c6 d7 be 6e 6c 6b be 8a 92 17 bf
       -0.107413605 -0.4214337 -0.22990581 -0.59207976
0003e0 43 a4 e8 be 12 82 2b bc 55 ff 4f be 69 ae 43 bf
       -0.45437822 -0.010468023 -0.20312245 -0.76438004
0003f0 03 6d 3e bf 85 d1 a1 be aa a2 02 bf bc 1b 21 bf
       -0.7438509 -0.31605163 -0.51029456 -0.62932944

linear2.weight f4 [2, 256]
000000 73 bc 3e 3d ab 7c 3b be 87 57 6d be 0e 15 28 3e
       0.046566438 -0.18309276 -0.2317792 0.16414282
000010 79 14 a7 3c a9 82 f5 be 17 fb 67 be e8 e6 7f be
       0.020395504 -0.47951248 -0.22654377 -0.24990427
000020 3c 50 1a 3e 5d ec b1 3d 4f f5 11 be b4 a8 76 3e
       0.1506967 0.08687661 -0.14253734 0.24087793
000030 f8 ef 13 3e fe ac 1d 3e 33 be 73 bc 00 f5 8e 3b
       0.1444701 0.15398023 -0.01487689 0.0043627024
000040 85 91 c6 bc c0 ae bf 3c 30 7d 59 bd 9a 1f c3 3d
       -0.024239311 0.023398757 -0.053097904 0.09527512
000050 66 d0 7d 3c c8 40 ec bc d0 e6 fc bd ec 89 41 bc
       0.015491581 -0.028839484 -0.123487115 -0.011812668
000060 89 49 1c 3c a0 c9 4a be a1 7a c5 bc 2c 0d 69 3e
       0.0095390165 -0.19803476 -0.024106326 0.22758931
000070 eb 78 e7 bc 7c 68 08 3d 2d 51 99 3c 3e 43 a1 be
       -0.0282559 0.03330277 0.018715465 -0.31496614
000080 24 a4 73 be 8e 61 7a be 42 ae b1 bd 27 55 6d be
       -0.23793083 -0.24451277 -0.08675815 -0.23177014
000090 e7 0e be bc 62 37 4c bd 64 19 0e bd 3d 86 8a bd
       -0.023200465 -0.049857505 -0.034692183 -0.06763885
0000a0 71 92 50 3d 47 a7 53 be 48 4d 0a bd 70 cf 76 3d
       0.050920907 -0.2066928 -0.033765107 0.06025642
0000b0 8b 0b 19 be a2 b0 07 be 92 ca 41 be de 4c 88 be
       -0.1494581 -0.13250974 -0.1892493 -0.26621145
0000c0 ea 98 a0 bc 85 1e 98 3e 22 25 62 be a0 ae d1 3c
       -0.019604165 0.29710785 -0.22084478 0.025595963
0000d0 06 fb 8f bc 58 47 be bc 4c e1 94 3c 18 ac 41 3c
       -0.017575752 -0.023227379 0.018173836 0.0118208155
0000e0 05 e1 ee 3c 43 33 59 be 7a 6b 04 be 6c f8 3f 3d
       0.029160032 -0.21210961 -0.12931624 0.046867773
0000f0 63 e8 5a bd 9f d3 b2 bc f0 9f 34 3d b2 0f 38 3d
       -0.053444277 -0.021829424 0.04409784 0.044936843
000100 0c 27 c4 bb a8 78 d7 3d 85 c0 42 3d 9c dc 6d 3c
       -0.0059861 0.1052106 0.047546882 0.014517929
000110 a3 be 45 3c 5c 62 a9 bc 94 1e 9c 3d b2 6b 33 3d
       0.012069377 -0.020676784 0.0762302 0.043803878
000120 f9 02 6b b9 74 82 b4 3c 8c 3c 44 3d aa d8 87 be
       -0.00022412454 0.022034861 0.047909304 -0.2653249
000130 d0 08 8c be 35 89 9a 3d ed 56 1b 3e 8a e7 d3 bd
       -0.27350473 0.075457014 0.15169878 -0.10346897
000140 e8 10 2a 3e 21 d5 78 3e 14 4a 22 3d e6 f4 bc bd
       0.16608012 0.24300052 0.039621428 -0.09226398
000150 a4 0e 83 bc fa a7 d2 3d 17 f0 96 3e 88 ac 64 bb
       -0.015998192 0.10285945 0.2948005 -0.0034892876
000160 e8 37 3e bc 05 3b 8e bd f1 6c 67 be 44 a9 5c bd
       -0.011610009 -0.06944851 -0.22600152 -0.05387236
000170 de a1 2a 3b c4 f7 b7 bc 9c 5b 8e 3b 62 0c bd bd
       0.0026036422 -0.022457011 0.004344417 -0.092308775
000180 e7 c5 2d be 8a 5b 84 3d cd d2 30 3d 79 f7 31 3e
       -0.16970025 0.06462772 0.043169785 0.1737956
000190 68 71 60 3c 15 f9 c0 3c 12 a5 bc bc 2c 3d b7 3c
       0.013698913 0.023556272 -0.02302793 0.022368036
0001a0 61 91 c4 3d 21 be 04 bd 80 45 96 bb 9c 55 e9 be
       0.09598041 -0.032407884 -0.0045859218 -0.45573127
0001b0 ac 51 06 bd e4 34 67 bd b8 ee 56 be 4d 95 3a bd
       -0.032792732 -0.056446925 -0.20989501 -0.04555254
0001c0 69 f3 e7 bd 47 48 94 be ab 7f cf 3d 16 be e5 3c
       -0.11325724 -0.28961393 0.101317726 0.028044742
0001d0 94 06 81 3c 3f 72 9a be 54 9c 26 bd 82 63 1c 3e
       0.015750207 -0.30165288 -0.04067643 0.15272334
0001e0 02 03 04 bc ee 43 46 bd fe d9 f8 3c dd 77 b6 3d
       -0.008057358 -0.048404627 0.030377384 0.08909581
0001f0 ab a2 8b 3b 3d dc c0 bd 10 e1 f6 ba a3 98 db bb
       0.004261335 -0.09417007 -0.0018835384 -0.0067015453
000200 0c 8b 81 3d 14 6b 94 3d 91 9c a7 bd 93 3e 98 3c
       0.06325349 0.07246986 -0.081841595 0.018584525
000210 f7 bf aa bc 22 ec d5 bb fd c7 16 bf 6e 24 02 bd
       -0.02084349 -0.0065283934 -0.5889891 -0.031773023
000220 13 81 a4 bb 10 ec 11 3d 53 08 fb 39 8b 5e e6 3c
       -0.0050202697 0.035625517 0.00047880653 0.028121253
000230 ec 1f ec 3c eb 82 8e be 07 34 01 3e 7e 15 39 bd
       0.028823815 -0.27834257 0.12617503 -0.045186512
000240 1d 25 eb 3d d9 0c c4 3c de e3 58 bd e0 b0 5a 3d
       0.11481688 0.023931907 -0.052951686 0.053391337
000250 02 e4 73 bd 3c af f5 bc 5f 2f ad bb 66 fa 0a 3d
       -0.059543617 -0.029990785 -0.005285188 0.033930205
000260 67 27 30 3c 2e fb a9 3e d8 9a 3d bd 40 29 1b 3d
       0.010751582 0.33199447 -0.04629025 0.037881136
000270 fe 8f 14 bd ba ef 2e 3d b1 da 52 be 38 7e 55 bc
       -0.036270134 0.04270909 -0.20591237 -0.013030581
000280 82 9a 7a be 20 ff a3 ba 0e 09 01 be d7 8a 98 3c
       -0.24473003 -0.0012511946 -0.1260111 0.018620891
000290 78 e1 bf bc 2b 6d 90 be f2 b5 df bd 30 d1 22 bd
       -0.023422942 -0.2820829 -0.10923375 -0.039750278
0002a0 0f 40 ae bd 79 06 0c bd 50 36 40 3c ca 5e 5c be
       -0.08508312 -0.03418586 0.011731699 -0.21520534
0002b0 98 67 f3 be 92 b3 6a 3e e7 9e 96 3c ff 31 49 3e
       -0.47539973 0.22920063 0.018386317 0.19647978
0002c0 9a 6a 89 3e e0 bb 43 bc e0 71 86 3c 85 1c 9a 3d
       0.26839143 -0.011946648 0.016411722 0.07524971
0002d0 f9 c1 e6 bb 45 40 84 bc 1a 2e a7 bd 74 95 a4 3c
       -0.0070421663 -0.016143927 -0.0816309 0.020090796
0002e0 04 0b 56 bd 13 84 9f bc 76 fb bb bc 6c 7b d3 3d
       -0.0522566 -0.019472158 -0.022947054 0.10326275
0002f0 91 92 c5 bd 56 16 7a 3c 5b 75 e2 bb 92 cd 14 bd
       -0.09647096 0.015264114 -0.0069109625 -0.03632886
000300 ac 10 34 bd 1c 63 9a bc c4 47 79 3d bf a9 fb be
       -0.043961212 -0.018846087 0.060859457 -0.49152943
000310 ee ed 07 bc 7a ad 0d 3d d5 e7 27 bc ed ac 3f 3d
       -0.008296473 0.03458927 -0.010248144 0.046795774
000320 c5 c8 81 be eb 0e 96 3e 23 20 5a be 16 f7 61 3d
       -0.25348487 0.29308257 -0.21301322 0.05516728
000330 2c b5 cb bc 60 a7 e8 3c 8e b1 b7 3c 5d 89 5c be
       -0.024866663 0.028400123 0.022423532 -0.21536775
000340 cb 7e 83 be cc 32 ac bc b7 10 40 be fc 2f a4 bc
       -0.25682673 -0.021020316 -0.18756376 -0.020042412
000350 b5 78 a2 be 98 82 59 bc a0 d2 35 be f6 8c b3 3c
       -0.31732717 -0.013275765 -0.17756128 0.021917801
000360 3b ee f9 3c d0 0d ce bd d6 89 a8 bb a2 11 93 3e
       0.030509105 -0.10061228 -0.0051433844 0.2872439
000370 da 29 d5 be 12 ca 68 3d 7f 8c 3c be 36 68 db 3c
       -0.41633493 0.056833334 -0.1841297 0.02678309
000380 7c 18 7a bd 52 eb 31 3d 81 a1 8b be 33 c8 31 3d
       -0.061058506 0.04343731 -0.27271655 0.043403815
000390 7f 27 9b 3e 08 d1 dd 3c 4c 1f be bc 61 32 b1 3a
       0.3030357 0.027077213 -0.023208283 0.0013519042
0003a0 b5 c8 8c bd d4 6e d7 3c 54 c4 23 3c e3 fd c6 3c
       -0.06874219 0.026297964 0.009995539 0.024290984
0003b0 20 b0 68 bc c7 cb e6 3b da a4 4f 3e 4e 33 f5 3d
       -0.014202148 0.007043335 0.2027773 0.11972676
0003c0 ac 2c bb bc e7 45 a4 bd d0 92 46 bc 78 2c 6e 3e
       -0.02284845 -0.08021145 -0.012119964 0.23259151
0003d0 32 9e 2e 3d 37 d6 8d be 14 a5 e2 3b b7 19 a8 3c
       0.042631336 -0.27702495 0.0069166515 0.020520074
0003e0 36 82 e4 bd 29 3a ea bc 0a ac 24 3d d3 13 0e bd
       -0.11157648 -0.028592186 0.04020313 -0.034686875
0003f0 fd 85 fe bd 2e 42 9e 3e 16 98 8a be 2d 7a 2e bd
       -0.124279 0.30909866 -0.27069157 -0.042596985

linear2.bias f4 [2]
000000 1b 88 f7 bf fe 68 f2 bf
       -1.9338411 -1.8938291
